logs/model.pkl (torch, 94035 bytes, 4 tensors)

conv1.weight f4 [1433, 16]
0	0x3f55f8c8	0.83582735
1	0xbf0bbb91	-0.5458308
2	0x3f611f83	0.8793871
3	0xbf78f55b	-0.9724938
4	0xbf46bcd7	-0.77631897
5	0xbf6ee95b	-0.9332482
6	0x3f93fa58	1.1560774
7	0x3c9edc60	0.019392192
8	0x3f45b473	0.7722847
9	0x3f41bf38	0.756824
10	0x3f64e842	0.894169
11	0x3f7fdee6	0.9994949
12	0xbf90c3cd	-1.1309754
13	0xbf6219d0	-0.88320637
14	0x3f6a60ea	0.9155413
15	0x3f5f2a86	0.8717426
16	0x3f57fa8b	0.84366673
17	0xbf8690e3	-1.0512966
18	0x3f885d4e	1.0653474
19	0xbf4e6646	-0.80624807
20	0xbfa13f7e	-1.2597501
21	0xbc2d5724	-0.010579858
22	0x3f6622a2	0.89896595
23	0xbf8f0bad	-1.1175438
24	0x3f9f366f	1.2438487
25	0x3f8f949b	1.1217226
26	0x3f7f6751	0.99767023
27	0x3f85ba88	1.044755
28	0xbd31b49b	-0.04338513
29	0xbf395d34	-0.7240784
30	0x3f955703	1.1667179
31	0x3f5d2e7a	0.8639904
32	0x3f89bb5c	1.0760303
33	0xbf57ab96	-0.84246194
34	0xbf801868	-1.0007448
35	0xbf669af0	-0.90080166
36	0xbeed9859	-0.46405295
37	0xbf80ce50	-1.0062962
38	0xbf680843	-0.90637606
39	0x3fb26863	1.3938106
40	0xbf825397	-1.018176
41	0x3f4e8d4d	0.8068436
42	0x3e97eb63	0.29671773
43	0x3fd0b586	1.6305397
44	0xbf849b3b	-1.0359873
45	0xbf6c2c50	-0.92255116
46	0x3f918201	1.1367799
47	0x3f809637	1.0045842
48	0x3f6abda8	0.9169564
49	0xbed35660	-0.41276836
50	0x3f9371a4	1.1519055
51	0xbeb2f7ed	-0.34954777
52	0x3f75a1c2	0.9594995
53	0xbf6c59dd	-0.9232462
54	0x3fda7971	1.7068311
55	0x3f8e80dd	1.1133076
56	0xbf64e4b1	-0.89411455
57	0xbf604260	-0.8760128
58	0xbedaefd0	-0.42761087
59	0xbedabd12	-0.42722374
60	0xbf97c864	-1.1858029
61	0x3e2f7e22	0.1713796
62	0x3f8c01cc	1.0938048
63	0x3fba0eee	1.4535806
64	0x3f84c444	1.0372396
65	0xbf163fe8	-0.58691263
66	0xbf878fe7	-1.059079
67	0x3f4a43c8	0.79009676
68	0xbf58ba60	-0.84659386
69	0x3f83dba2	1.0301402
70	0xbf790b2d	-0.9728268
71	0xbf435697	-0.76304
72	0x3f630f6b	0.886954
73	0x3f4c0409	0.7969366
74	0xbf5a439b	-0.8525941
75	0x3f7e0477	0.9922556
76	0x3f64503a	0.89184916
77	0xbf7369d8	-0.9508338
78	0xbf6e4997	-0.9308104
79	0x3f72d45e	0.94855297
80	0xbf6a3835	-0.91492015
81	0x3ef97242	0.48719984
82	0x3fb11b18	1.3836393
83	0x3f8b994e	1.090616
84	0x3f71e007	0.94482464
85	0x3f703921	0.9383717
86	0x3e89610d	0.26831856
87	0xbf939789	-1.153062
88	0xbf78f8d0	-0.9725466
89	0x3f9640ce	1.1738527
90	0xbf54d1a1	-0.8313237
91	0xbf853f92	-1.0410025
92	0xbf9feec5	-1.2494742
93	0xbf4e38d8	-0.80555487
94	0x3f8fcb3e	1.12339
95	0xbf83d31c	-1.02988
96	0x3f85fb3e	1.0467298
97	0xbf872493	-1.0558037
98	0xbf7d85ce	-0.99032295
99	0x3f7e5f7e	0.9936446
100	0x3fc4cc42	1.5374835
101	0xbfb07557	-1.3785809
102	0xbf76c2b3	-0.9639084
103	0x3f94f739	1.1637946
104	0xbf7ed670	-0.99545956
105	0x3f95bb37	1.1697758
106	0xbf818f6d	-1.0121895
107	0xbf82cc69	-1.0218631
108	0xbf81b6b3	-1.013388
109	0xbf792ed9	-0.9733711
110	0x3f987eef	1.1913737
111	0xbf936b58	-1.1517134
112	0x3f793b08	0.973557
113	0xbf8f4d2b	-1.1195425
114	0x3f91d028	1.1391649
115	0xbf74b867	-0.95593876
116	0xbfa1e1e9	-1.2647067
117	0xbf96c114	-1.1777673
118	0x3f621b38	0.8832278
119	0xbf8c6aeb	-1.0970129
120	0x3f9f0078	1.2422018
121	0x3f8bbbe1	1.0916711
122	0x3f785390	0.97002506
123	0x3f6054f3	0.8762962
124	0xbf4bcb10	-0.79606724
125	0xbf475f6a	-0.77879965
126	0x3fb48b16	1.4104946
127	0x3f674b9b	0.9034974
128	0x3f83772a	1.0270741
129	0xbf831877	-1.0241841
130	0xbf986c2e	-1.1908014
131	0x3f8dc1b2	1.1074736
132	0xbf88a169	-1.0674258
133	0x3df0839a	0.11743851
134	0xbf97024b	-1.1797575
135	0xbf8d8a4e	-1.1057832
136	0x3f1fd982	0.62441266
137	0x3f9d5b18	1.2293425
138	0xbf8073cd	-1.003534
139	0x3eadfe1d	0.33982936
140	0x3f3407a4	0.7032416
141	0xbfb0cfb1	-1.3813382
142	0xbf299eb0	-0.6625776
143	0x3f76e829	0.96448
144	0x3f4be8c5	0.79652053
145	0xbf5c65f7	-0.86093086
146	0x3f792f6b	0.9733798
147	0xbf3de6b4	-0.7418015
148	0xbf76424e	-0.9619492
149	0xbf64a6de	-0.8931712
150	0xbf4d2dce	-0.8014802
151	0xbf9573d9	-1.1675979
152	0x3f87ba02	1.060364
153	0x3f83ff75	1.0312334
154	0x3f42e5c6	0.76131856
155	0xbf60960b	-0.8772895
156	0xbf48505b	-0.7824761
157	0xbf233b43	-0.637623
158	0x3f8f370a	1.1188672
159	0x3f087bec	0.5331409
160	0xbe5ee4bd	-0.21766944
161	0x3e666092	0.22497776
162	0x3fd3fd81	1.6561738
163	0xbf293603	-0.6609804
164	0x3dc81db9	0.09771294
165	0xbd0c6b47	-0.034281995
166	0xbf3db9a8	-0.74111414
167	0xbeb8c5b5	-0.36088338
168	0x3f28bb05	0.6591037
169	0x3faa85c7	1.3322076
170	0x3f48f33f	0.78496164
171	0xbfbbb5d0	-1.466486
172	0xbf82f45c	-1.0230823
173	0xbf3f437a	-0.74712336
174	0x3fbfa126	1.4971054
175	0xbfa291b2	-1.2700713
176	0x3ec920b6	0.3928277
177	0xbf6646d3	-0.8995182
178	0x3cccccf9	0.025000082
179	0xbf5f6f08	-0.87278795
180	0xbf8c3b27	-1.0955552
181	0xbf548968	-0.83022165
182	0xbf81b48b	-1.0133222
183	0x3ea14e40	0.31505013
184	0x3f949c8d	1.1610276
185	0x3f876089	1.0576335
186	0x3f5a2a23	0.85220546
187	0xbdc87331	-0.09787596
188	0x3f5f3102	0.87184155
189	0x3fa13079	1.2592918
190	0xbf44c480	-0.76862335
191	0xbfa017b6	-1.2507236
192	0x3fa212b6	1.266196
193	0x3d161ce1	0.036648635
194	0xbf856f76	-1.042464
195	0x3ed424ee	0.41434425
196	0xbf4b8e26	-0.79513776
197	0x3f676eed	0.90403634
198	0xbf53ed72	-0.8278419
199	0x3f826891	1.0188161
200	0x3f4b5408	0.79425097
201	0x3ea61d80	0.32444382
202	0xbf3e9c35	-0.74457103
203	0x3f9b253d	1.2120739
204	0x3f86b2dd	1.0523335
205	0xbf387b4c	-0.72063136
206	0xbf899516	-1.0748622
207	0x3fcbfbf2	1.5936263
208	0xbfb60039	-1.4218818
209	0x3f947146	1.1597068
210	0x3f99a262	1.200268
211	0xbdbef3b3	-0.09323826
212	0x3f0e9acc	0.5570495
213	0x3facee49	1.3510219
214	0x3f81edcf	1.0150698
215	0xbfa9b73e	-1.3259046
216	0xbf7304d6	-0.94929254
217	0x3f8c8668	1.0978518
218	0x3f6c2fd9	0.9226051
219	0xbf9f121f	-1.2427405
220	0xbf493dde	-0.78610027
221	0xbf6a8129	-0.9160333
222	0x3f860e54	1.0473123
223	0xbfaa425e	-1.3301504
224	0x3f3d048b	0.7383506
225	0xbf9792cb	-1.1841673
226	0x3fa429f2	1.2825301
227	0xbf82f47e	-1.0230863
228	0xbf9f5afa	-1.2449639
229	0xbf30b24d	-0.69022065
230	0x3f1adbeb	0.6049182
231	0xbf4ab9e2	-0.79189885
232	0x3fa3344b	1.2750334
233	0x3fbc2b40	1.4700699
234	0x3f77bdee	0.96774185
235	0x3f5979a5	0.8495124
236	0xbeccd5f2	-0.40006977
237	0xbf31ab91	-0.69402415
238	0x3fb082e0	1.378994
239	0x3f2a9e2a	0.6664759
240	0xbf05dcf4	-0.5229027
241	0x3f1d41de	0.6142863
242	0xbf357b83	-0.7089159
243	0xbec3b5f5	-0.3822476
244	0x3ec4ff25	0.3847591
245	0x3f46b8b3	0.7762558
246	0xbe985661	-0.29753402
247	0x3f1cb02f	0.61206335
248	0x3f004ff1	0.5012198
249	0xbf1bee07	-0.60910076
250	0x3f029410	0.51007175
251	0x3f3e7726	0.74400556
252	0x3f2a8255	0.6660512
253	0x3f11b364	0.56914353
254	0xbf35312b	-0.7077815
255	0xbe8090a7	-0.2511036

conv1.bias f4 [16]
0	0x3f28849e	0.6582736
1	0x3ed46e67	0.4149048
2	0x3f0dbef8	0.5536952
3	0x3f1d98e7	0.61561435
4	0x3f2783db	0.6543557
5	0x3ea1edb2	0.3162666
6	0x3ec80d32	0.39072567
7	0x3f406fe3	0.75170726
8	0x3eff589e	0.49872297
9	0x3f0e52d1	0.5559512
10	0x3ed9885e	0.42486852
11	0x3eb9eafb	0.36312088
12	0x3f2c8ee0	0.6740551
13	0x3f5c360f	0.86019987
14	0x3f26f3d9	0.6521583
15	0x3ee07def	0.4384608

conv2.weight f4 [16, 7]
0	0x3fe13fbb	1.7597574
1	0x3fb921d4	1.4463449
2	0x3fce8e65	1.6137205
3	0xbfcf432b	-1.6192373
4	0xbfab4dfe	-1.3383176
5	0x3f93395b	1.1501878
6	0xbf91bf76	-1.1386554
7	0x3fcc122f	1.5943049
8	0xbfc0b68a	-1.5055707
9	0xbfb635a3	-1.4235119
10	0x3fcb603d	1.5888745
11	0x3fb9c25e	1.4512441
12	0xbfa1e6d5	-1.2648569
13	0xbf8f2924	-1.118443
14	0xbfc6711e	-1.5503271
15	0x3fabe470	1.3429089
16	0xbfc8d03b	-1.5688547
17	0x3f9d2931	1.2278196
18	0xbfb3ce2b	-1.4047292
19	0xbfc90b3d	-1.5706555
20	0x3f854601	1.0411988
21	0xbf820069	-1.0156375
22	0xbfd7fb66	-1.6873596
23	0x3fd6b218	1.67731
24	0x3fce6712	1.6125205
25	0xbf9e3540	-1.2360001
26	0x3fcaab96	1.5833614
27	0x3fb06e0d	1.3783585
28	0x3fca1dbe	1.5790327
29	0xbfa83189	-1.3140117
30	0x3fb5d0ac	1.4204307
31	0x3fb0db63	1.3816952
32	0x3f874c02	1.0570071
33	0xbfbf73cb	-1.4957212
34	0x3f9d3212	1.2280905
35	0xbfa95a58	-1.3230696
36	0xbfd6790a	-1.6755688
37	0xbfd09cec	-1.6297889
38	0x3fb9e61d	1.452335
39	0xbf953176	-1.1655719
40	0x3f9b6895	1.2141291
41	0xbfb52f3b	-1.4155039
42	0x3fe45315	1.7837855
43	0x3fa7cb9b	1.310901
44	0xbfbd7560	-1.4801445
45	0x3fc32058	1.5244246
46	0xbfd32fb8	-1.6498938
47	0xbf9b79f3	-1.2146591
48	0x3fa76bdd	1.3079792
49	0x3fda1f24	1.7040753
50	0xbfb7d014	-1.4360375
51	0x3fb1ee6e	1.3900888
52	0xbfc27a75	-1.5193621
53	0x3f96c4d8	1.1778822
54	0xbfa757b6	-1.3073642
55	0xbfa0badc	-1.2557025
56	0xbfcdd9f1	-1.6082135
57	0x3fb247d6	1.3928173
58	0xbfc3a81a	-1.5285676
59	0xbfbb1a1f	-1.4617347
60	0x3fcf0dc2	1.6176074
61	0x3f9b075a	1.2111619
62	0x3f76616a	0.9624239
63	0xbfc60d94	-1.5472894
64	0x3fb3be2c	1.4042411
65	0x3fc6c6ae	1.5529382
66	0x3fa31310	1.2740192
67	0xbf2899b6	-0.65859544
68	0x3fa56cd8	1.2923841
69	0xbfc444e3	-1.5333523
70	0x3f8b11de	1.0864828
71	0x3fcdcf80	1.6078949
72	0xbfd804ff	-1.6876525
73	0x3fa77da8	1.3085222
74	0x3fc37234	1.5269227
75	0xbf998517	-1.1993741
76	0xbfbc851f	-1.4728125
77	0x3fe21535	1.7662722
78	0x3f5d241e	0.86383235
79	0xbfc6b1fe	-1.5523069
80	0xbfc112bd	-1.5083843
81	0x3f83fca0	1.031147
82	0x3fb21eda	1.3915665
83	0xbf9e781e	-1.2380407
84	0xbfc9c203	-1.5762333
85	0xbfb44a61	-1.4085199
86	0xbfb289eb	-1.3948339
87	0xbf91ac19	-1.1380645
88	0x3fa4e665	1.2882811
89	0x3fab3b2e	1.3377435
90	0x3faccafb	1.3499445
91	0xbfb5c235	-1.4199892
92	0xbf8d121a	-1.1021149
93	0xbf464cce	-0.77460945
94	0xbfad385f	-1.3532828
95	0x3fb979a8	1.4490252
96	0xbf960e3f	-1.1723098
97	0x3fb99480	1.4498444
98	0xbf24e670	-0.6441412
99	0x3fab6dc5	1.3392874
100	0x3f98c125	1.1933943
101	0x3f919d12	1.1376059
102	0xbfb5bdc6	-1.4198539
103	0xbfc8c6a7	-1.5685624
104	0xbf9adc5f	-1.2098502
105	0x3fef0b7e	1.8675382
106	0x3fabc797	1.3420285
107	0xbfaa96dc	-1.3327289
108	0xbfb2f3c2	-1.3980639
109	0xbfc48956	-1.5354412
110	0x3fb1cb3c	1.3890147
111	0x3fa63c70	1.2987194

conv2.bias f4 [7]
0	0xbf51c57c	-0.8194196
1	0xbf84696c	-1.0344672
2	0x3f628bb6	0.8849443
3	0xbf712027	-0.94189686
4	0xbf04b5b3	-0.5183975
5	0x3e420104	0.189457
6	0xbf5b6adf	-0.8570995
